Training-code/IoTCloudServe@TEIN/DataAnalytics/model.pth (torch, 205020 bytes, 9 tensors)

lstm.weight_ih_l0 f4 [256, 1]
0.11938161 0.13212088 -0.026614651 0.05120145 0.0012102873 0.2438801 0.028632844 -0.08842172
0.13111572 0.1462332 0.050256353 -0.069534 -0.12197157 0.09702437 0.03051857 0.1573098
0.10839406 0.04653694 0.22401439 0.18017092 0.006335544 0.056162663 0.10944422 0.74211043
0.076746784 0.038560126 -0.0057604206 0.10360108 0.12009125 0.3154681 -0.108497046 0.13778579
-0.024728857 0.21159834 0.15840626 0.4502312 0.14773002 0.023423256 0.11829598 0.06273805
-0.11085762 -0.007966557 -0.041880507 0.016652139 0.03486934 -0.025742792 0.15272301 -0.012390385
0.0736964 0.078210734 -0.15897217 0.19466148 0.14851463 0.15775308 0.26313683 0.18512028
0.027694492 0.06796282 0.0527294 0.25439966 0.04576809 0.1454415 0.18168111 0.09044975
0.16587788 -0.020327937 -0.10127326 0.11064549 -0.068122126 0.08187263 0.007875751 0.062491596
0.09880538 0.025689429 -0.21782638 -0.02392159 0.038450588 -0.0049731163 -0.17716345 0.04975255
0.0842102 -0.102883 -0.12736495 -0.038600355 -0.00413443 0.0642543 -0.14340477 -0.10189112
0.11580204 -0.07140333 -0.069137566 0.12694159 -0.05996077 0.06734593 -0.091659345 -0.044491805
0.03648328 0.15386282 0.0072981114 0.13245167 -0.020564841 0.022516942 0.010137232 -0.072046615
0.059662923 -0.13434303 0.05364039 0.14526445 -0.010972047 0.100138806 0.13200177 -0.008884948
-0.04531285 0.102058895 -0.074123286 0.09266146 0.012911311 -0.06280964 0.037019625 -0.04925049
-0.07274243 0.02252953 -0.057270795 0.03913602 -0.0003552828 -0.022548107 -0.036426235 0.08789892
-0.21924548 0.17013997 -0.052994598 -0.2592687 0.17544194 -0.12744315 0.056843814 0.06901725
0.0044360426 -0.1440457 0.025342226 0.06803462 -0.18429507 -0.10417617 0.017534181 0.08074007
0.032916937 0.20157705 -0.18569915 -0.19480212 -0.0956387 0.057395473 0.16456866 -0.3707093
0.20504223 0.23387554 -0.025580402 -0.14430912 -0.108309396 -0.30911478 -0.14508171 0.00838178
0.11811555 -0.20832878 -0.22465572 0.21196142 0.20979345 -0.1947156 0.20264012 -0.08692029
0.07063064 0.09468794 -0.15345378 -0.20585616 -0.019252198 0.17919266 0.033918306 -0.17109899
0.23521015 -0.1599001 -0.09777387 0.054767612 -0.17385294 0.15456484 0.23828316 -0.10414663
0.20479971 0.22386718 0.11602898 0.23271364 0.08646753 0.3035174 0.25567457 0.0851565
0.08227646 0.0017364193 -0.092564605 0.14538598 0.12288969 0.058333322 0.008388339 0.10025288
0.049743976 0.07852031 -0.028161831 -0.012065986 -0.09475464 0.0037172933 -0.0109662255 -0.08562095
-0.0720916 0.03432111 0.07540949 0.1981173 -0.2167435 0.16092762 0.11251994 0.6930255
0.10452731 0.18615155 0.002543059 -0.0022551394 0.03543689 0.35526052 -0.06768792 0.049761795
-0.099354506 0.15400918 0.102093354 0.3996052 0.13435668 0.1309323 -0.0044226167 0.03674482
0.04134525 -0.15725996 -0.04072123 0.04995514 -0.064087026 0.12674193 0.020300828 -0.018629415
0.15993847 0.07053401 -0.26199943 0.06866105 0.046550453 0.19352897 0.29833046 -0.025492879
-0.093572736 0.031897895 0.08053279 0.19161493 -0.04307788 0.089608625 0.19145326 0.10725727
00000000: 587e f43d b24a 073e f806 dabc 9db8 513d
00000010: 81a2 9e3a b4bb 793e 6d8f ea3c 7216 b5bd
00000020: 3343 063e 28be 153e 9bd9 4d3d d767 8ebd
00000030: 3bcc f9bd b7b4 c63d 1502 fa3c d215 213e
00000040: b4fd dd3d 859d 3e3d 0764 653e ba7e 383e
00000050: 659a cf3b d20a 663d 4b24 e03d f3fa 3d3f
00000060: 6b2d 9d3d 39f1 1d3d e9c1 bcbb ce2c d43d
00000070: 67f2 f53d 0985 a13e b333 debd b817 0d3e
00000080: 2c94 cabc 3cad 583e 4035 223e b484 e63e
00000090: 8a46 173e 21e2 bf3c 2a45 f23d cf7c 803d
000000a0: 5209 e3bd 2986 02bc e58a 2bbd 116a 883c
000000b0: 27d3 0e3d 8ce2 d2bc 6c63 1c3e 0b01 4bbc
000000c0: 23ee 963d f32c a03d 9ac9 22be 5755 473e
000000d0: 3814 183e 068a 213e dfb9 863e 2c90 3d3e
000000e0: 8fdf e23c 1730 8b3d c9fa 573d ac40 823e
000000f0: 5277 3b3d 9eee 143e 9d0a 3a3e b83d b93d
00000100: e4db 293e c686 a6bc 5b68 cfbd 1a9a e23d
00000110: 9d83 8bbd d6ac a73d 4b09 013c 30f7 7f3d
00000120: 7a5a ca3d a372 d23c e10d 5fbe 36f7 c3bc
00000130: 5d7e 1d3d 86f5 a2bb 566a 35be 54c9 4b3d
00000140: 6676 ac3d 53b4 d2bd f56b 02be 681b 1ebd
00000150: 1d7a 87bb c297 833d b3d8 12be 4bac d0bd
00000160: 9f29 ed3d e93b 92bd ff97 8dbd fafc 013e
00000170: 6d99 75bd aaec 893d e5b7 bbbd 0a3d 36bd
00000180: 7e6f 153d 378e 1d3e ff24 ef3b 69a1 073e
00000190: 9977 a8bc 7375 b83c a216 263c 2d8d 93bd
000001a0: 1c61 743d 3891 09be 07b6 5b3d 34c0 143e
000001b0: 1ac4 33bc 9315 cd3d 792b 073e 2c92 11bc
000001c0: f899 39bd 4104 d13d f3cd 97bd 4bc5 bd3d
000001d0: f789 533c 57a2 80bd e4a1 173d e2ba 49bd
000001e0: fcf9 94bd d98f b83c c894 6abd 174d 203d
000001f0: 4045 bab9 cfb6 b8bc ad33 15bd 5904 b43d
00000200: e381 60be 2c39 2e3e dd10 59bd debe 84be
00000210: 0da7 333e 7580 02be 0fd5 683d ea58 8d3d
00000220: 395c 913b b780 13be 809a cf3c bc55 8b3d
00000230: d9b7 3cbe 515a d5bd d8a3 8f3c 0d5b a53d
00000240: e9d3 063d 376a 4e3e eb27 3ebe 357a 47be
00000250: 39de c3bd 8417 6b3d b084 283e 9ccd bdbe
00000260: 97f6 513e 127d 6f3e fe8d d1bc c5c5 13be
00000270: 51d1 ddbd 4b44 9ebe 4d90 14be bc53 093c
00000280: 91e6 f13d 2454 55be 260c 66be 6a0c 593e
00000290: 18d4 563e 8763 47be e480 4f3e 4403 b2bd
000002a0: cca6 903d c0eb c13d fd22 1dbe f5cb 52be
000002b0: c9b6 9dbc 487e 373e eced 0a3d 9334 2fbe
000002c0: eeda 703e dabc 23be ab3d c8bd 0154 603d
000002d0: 8106 32be 3f46 1e3e 8000 743e d44a d5bd
000002e0: 04b7 513e 703d 653e 9aa0 ed3d 7c4c 6e3e
000002f0: e315 b13d a266 9b3e c7e7 823e 8866 ae3d
00000300: 9080 a83d 9098 e33a 8392 bdbd 10e0 143e
00000310: 97ad fb3d ecee 6e3d 3e6f 093c 6251 cd3d
00000320: 57c0 4b3d 42cf a03d a4b3 e6bc 6ab0 45bc
00000330: b80e c2bd d59d 733b afab 33bc 095a afbd
00000340: c3a4 93bd 4b94 0c3d 4a70 9a3d 43df 4a3e
00000350: 02f2 5dbe 36ca 243e db70 e63d 1f6a 313f
00000360: 6a12 d63d 839e 3e3e 73a9 263b f6ca 13bb
00000370: 4626 113d b5e4 b53e f79f 8abd 06d3 4b3d
00000380: 607a cbbd 95b4 1d3e 5216 d13d 0e99 cc3e
00000390: cc94 093e 1e13 063e 99eb 90bb bd81 163d
000003a0: a359 293d c108 21be 4ecb 26bd c39d 4c3d
000003b0: 0f40 83bd a3c8 013e ec4d a63c b79c 98bc
000003c0: e9c6 233e 2374 903d ca24 86be 2a9e 8c3d
000003d0: b0ab 3e3d 752c 463e c5be 983e 71d6 d0bc
000003e0: 10a3 bfbd 5ea7 023d 60ee a43d b436 443e
000003f0: 6e72 30bd ba84 b73d 530c 443e b3a9 db3d

lstm.weight_hh_l0 f4 [256, 64]
-0.009657691 0.055499114 -0.05257708 -0.13233818 0.08690885 -0.13467005 -0.038012296 -0.022851756
0.022820698 -0.087064 -0.03358515 -0.13675146 0.110838465 0.015604088 -0.008492102 -0.008998118
-0.07010107 0.013952647 -0.029877136 -0.14534345 -0.019836366 0.043076124 -0.08528925 -0.05180506
-0.027828768 -0.008788001 0.16527379 -0.024221852 -0.13128072 -0.046174075 0.059011277 0.13665679
-0.025652802 -0.15794659 -0.0918344 0.14645138 0.055071432 -0.16472879 0.060579825 0.009150327
0.16255416 -0.028774258 -0.0064042346 -0.16983965 -0.018538795 -0.03397641 -0.016533151 -0.05889634
0.13969487 -0.094967656 -0.060206573 -0.06944771 -0.07336518 0.011136034 0.111339055 0.026960598
-0.16494991 0.047551896 -0.06967038 0.09401162 -0.11690076 0.13863002 0.028241856 -0.07706554
0.01992202 0.05176556 0.043212626 0.031049725 -0.026258694 0.038495105 0.033156224 -0.084308244
-0.012728653 -0.041992273 -0.03187202 -0.018485004 -0.040683202 0.11185317 -0.104974315 0.012500939
-0.037159264 -0.037162077 -0.09392061 -0.040120915 0.051178407 0.106456734 0.046181265 0.06825567
-0.098874494 -0.04673682 -0.012571227 0.027833367 -0.03196128 -0.09942814 0.0047373795 -0.050180778
0.064375795 0.11168985 0.09991358 0.08340958 0.0014441716 -0.08861086 -0.09563553 -0.042257253
0.0519641 0.03381159 -0.08227609 0.013203358 0.058205325 -0.0052436525 -0.12882976 0.059751946
-0.035479873 -0.07189599 0.11791563 0.07004894 -0.08215366 -0.12293863 0.0049776984 0.12775514
0.045261126 -0.12367837 -0.024810636 -0.103193216 0.10037671 -0.0025712126 -0.12023436 0.03256286
0.22517559 -0.15714583 0.04304041 0.21759667 -0.035077564 0.0064719394 -0.09290968 0.09208469
0.050461564 0.066550635 -0.009882286 0.029897336 -0.0031603298 0.00862021 -0.11597098 -0.075179845
0.11665048 -0.20431548 0.036754955 0.020340703 0.17052715 -0.15743527 -0.08320482 0.068097495
-0.16479567 0.011760345 0.011532674 0.06795992 0.005134915 0.03201366 0.10446219 -0.10126268
-0.020546 0.11679329 0.08224146 -0.1869044 -0.053344816 0.0087594455 -0.10825108 -0.012108202
-0.06203815 -0.049178228 0.19692723 0.0687193 -0.021538954 -0.07272332 0.07941328 0.1383627
-0.21537931 0.03532297 -0.0049780477 -0.08213614 -0.033203032 -0.14488664 -0.02802479 -0.014592742
-0.02180184 0.02845779 0.0052428534 -0.041854348 -0.0031682395 -0.13046873 -0.10737612 -0.026709942
-0.041994434 -0.0093746465 0.02990942 -0.10870545 0.13460828 0.02778538 -0.11247106 0.123595156
-0.09885295 -0.055253465 -0.033307754 -0.09618912 0.02367082 -0.024162354 -0.15344134 0.005195233
0.109404914 -0.050508298 0.032653946 -0.14992608 0.09809622 -0.03471439 -0.026482457 -0.029275477
0.08737805 -0.014223214 0.032418005 0.028940024 -0.040060285 -0.09657076 0.15358478 0.13264608
-0.07055274 -0.018801253 0.07995276 -0.0716764 -0.015619802 0.07923803 0.022489341 0.03303623
0.08209658 0.13274556 0.019428443 -0.13115138 0.06940747 0.11946642 0.15222435 -0.15138496
0.00471219 -0.16573673 0.11633283 -0.061461728 0.023777556 -0.029385816 0.07978077 -0.10470407
-0.13524497 -0.055666924 -0.031826675 0.110388614 0.055745434 0.029655606 0.07593522 -0.048498258
00000000: 4b3b 1ebc 0a53 633d 105b 57bd a983 07be
00000010: 44fd b13d f2e6 09be c8b2 1bbd 9b33 bbbc
00000020: 79f2 ba3c 9c4e b2bd 9590 09bd 9308 0cbe
00000030: 47ff e23d 4aa8 7f3c 7522 0bbc d86c 13bc
00000040: 2691 8fbd a599 643c e5c0 f4bc ead4 14be
00000050: e07f a2bc 9770 303d 21ac aebd 8b31 54bd
00000060: 28f9 e3bc 8cfb 0fbc 883d 293e e86c c6bc
00000070: 746e 06be 0721 3dbd cfb5 713d c2ef 0b3e
00000080: d325 d2bc c0bc 21be ad13 bcbd 5af7 153e
00000090: 9592 613d aaae 28be 8d22 783d 41eb 153c
000000a0: 9974 263e feb7 ebbc 9dda d1bb 72ea 2dbe
000000b0: acde 97bc d92a 0bbd 8870 87bc 4a3d 71bd
000000c0: 2c0c 0f3e 677e c2bd 2b9b 76bd 9a3a 8ebd
000000d0: 7c40 96bd e973 363c bb05 e43d 79dc dc3c
000000e0: a1e8 28be c7c5 423d 58af 8ebd 2a89 c03d
000000f0: aa69 efbd 07f5 0d3e 775b e73c 8ad4 9dbd
00000100: 8133 a33c 2008 543d b9ff 303d fe5b fe3c
00000110: 791c d7bc 0bad 1d3d d2ce 073d cda9 acbd
00000120: d78b 50bc 1700 2cbd 3c8c 02bd dd6d 97bc
00000130: 6ea3 26bd 4613 e53d c6fc d6bd bdd0 4c3c
00000140: 5034 18bd 4337 18bd 7359 c0bd d455 24bd
00000150: 73a0 513d fd05 da3d 9128 3d3d a1c9 8b3d
00000160: b67e cabd 1c6f 3fbd 8cf7 4dbc cd02 e43c
00000170: d5e9 02bd fba0 cbbd 053c 9b3b 5c8a 4dbd
00000180: 75d7 833d a6bd e43d 7e9f cc3d a4d2 aa3d
00000190: 5c4a bd3a 9c79 b5bd 90dc c3bd f115 2dbd
000001a0: 4fd8 543d 067e 0a3d 5e80 a8bd e652 583c
000001b0: b568 6e3d f2d2 abbb f3eb 03be 75be 743d
000001c0: 5853 11bd 343e 93bd c07d f13d d275 8f3d
000001d0: 2e40 a8bd 40c7 fbbd f61b a33b 3ed2 023e
000001e0: bb63 393d 164b fdbd ad3f cbbc f756 d3bd
000001f0: 4e92 cd3d ca81 28bb 6f3d f6bd a260 053d
00000200: 6e94 663e d6ea 20be 244b 303d a9d1 5e3e
00000210: 7ead 0fbd 9012 d43b 6e47 bebd e696 bc3d
00000220: c9b0 4e3d b34b 883d 50e9 21bc 42eb f43c
00000230: 891d 4fbb c83b 0d3c 3182 edbd e4f7 99bd
00000240: 72e6 ee3d 1438 51be 5d8c 163d 8ca1 a63c
00000250: ab9e 2e3e b636 21be 4a67 aabd b376 8b3d
00000260: 32c0 28be 76ae 403c 8af3 3c3c 922e 8b3d
00000270: ca42 a83b c120 033d 46f0 d53d cf62 cfbd
00000280: 1650 a8bc 5231 ef3d 366e a83d de63 3fbe
00000290: 1880 5abd c783 0f3c beb2 ddbd 7b61 46bc
000002a0: b71b 7ebd 1c6f 49bd 4ba7 493e b4bc 8c3d
000002b0: 7672 b0bc f7ef 94bd 6ea3 a23d f4ae 0d3e
000002c0: 658c 5cbe d2ae 103d e41e a3bb fe36 a8bd
000002d0: e7ff 07bd 2a5d 14be 3f94 e5bc 6516 6fbc
000002e0: c699 b2bc 5020 e93c 3ecc ab3b 776f 2bbd
000002f0: 3da2 4fbb 9899 05be 03e8 dbbd cfce dabc
00000300: 5b02 2cbd 1e98 19bc 9a04 f53c f7a0 debd
00000310: c1d6 093e 2a9e e33c 3a57 e6bd 751f fd3d
00000320: 6a73 cabd 7551 62bd b66d 08bd cdfe c4bd
00000330: 4fe9 c13c 21f0 c5bc ba1f 1dbe c63c aa3b
00000340: af0f e03d cae1 4ebd 25c0 053d 3986 19be
00000350: ace6 c83d ad30 0ebd bdf1 d8bc 20d3 efbc
00000360: 43f3 b23d 7c08 69bc bec8 043d a113 ed3c
00000370: 4116 24bd e4c6 c5bd 5445 1d3e 60d4 073e
00000380: f47d 90bd 1605 9abc 46be a33d 14cb 92bd
00000390: 33ea 7fbc 8c47 a23d 913b b83c ff50 073d
000003a0: 4022 a83d 74ee 073e 6628 9f3c 8c4c 06be
000003b0: 8125 8e3d cfaa f43d b3e0 1b3e a904 1bbe
000003c0: b768 9a3b e4b6 29be e83f ee3d 4bbf 7bbd
000003d0: 26c9 c23c 86ba f0bc 1a64 a33d 166f d6bd
000003e0: a87d 0abe 0003 64bd b05c 02bd 6d13 e23d
000003f0: 5355 643d 50f0 f23c ed83 9b3d 1ca6 46bd

lstm.bias_ih_l0 f4 [256]
0.19404513 0.12887414 0.07776499 0.08115703 0.16072664 0.030073669 0.069217175 -0.056154203
0.039291438 0.08224207 0.13632368 0.07579964 0.013518783 -0.054297082 -0.11892044 -0.13766943
0.11036949 0.022206508 0.1882015 0.12389919 0.23502003 0.014041097 0.14571059 0.27213815
-0.011610388 0.20462611 0.011815023 -0.055617116 0.13154761 0.20006485 0.040794093 -0.0994093
0.07581144 0.14959939 0.029488064 0.2857722 0.09583246 0.0012241995 0.10867402 -0.008438617
-0.011836643 0.07055574 0.047002666 0.102747686 0.00092217204 0.17107199 -0.025170406 0.12426938
0.19418007 0.07513428 0.23366822 -0.10665875 0.14744368 0.09719931 0.012066459 0.099467084
0.20156848 -0.033056278 -0.023334127 0.23312257 0.055657003 0.25733155 0.10320476 -0.03482519
0.12796412 -0.12940839 -0.078818634 0.006268218 -0.002382232 -0.17236726 -0.13614753 0.089669876
0.08812287 -0.09663186 -0.016250871 0.05007097 -0.095956266 -0.067728974 -0.16725002 0.04742499
-0.015086369 0.024663262 0.03733553 0.06868699 -0.0076485826 0.07223056 0.06079674 -0.12490931
0.12238041 -0.06720597 0.03001806 0.11719069 0.069583856 -0.017032648 0.057909783 -0.023209196
-0.12524457 -0.113149494 0.096125945 -0.041880745 0.057432447 -0.020874647 -0.11463172 -0.044332333
0.030078944 0.022522882 -0.066213384 0.086813845 0.078295685 -0.039517354 0.0864517 0.00028224953
0.062864 -0.016692959 -0.15933616 -0.08001695 -0.008311409 0.043178983 -0.101961285 0.08468891
-0.02512819 0.10520122 0.014539223 -0.0118130045 -0.093508475 -0.106342 0.019102242 -0.11011149
0.07239673 0.093551196 0.060489785 0.06862925 0.08391357 -0.033396248 -0.025666485 0.06904045
-0.10233114 -0.0057377107 -0.006909519 -0.13533005 0.073004484 -0.09470158 -0.07703401 -0.02963559
-0.06575217 -0.12343547 0.09621649 -0.099313825 0.06842791 0.059693232 -0.09113927 -0.12825261
0.083525665 -0.10914512 -0.08264699 0.07302819 -0.02004681 -0.038836576 0.08491714 0.13525942
0.051116936 0.08909935 0.023337413 0.035905994 0.024269298 0.0019430534 -0.12943488 -0.1202746
0.0687092 0.0424858 0.10000167 -0.083980426 -0.024527822 -0.0925894 0.057992276 -0.07388749
-0.115039505 -0.047214095 0.031294696 0.017070644 -0.098847345 -0.013101114 0.04837907 -0.055664763
-0.062018573 -0.050126996 0.00095188385 -0.11734343 0.01990693 -0.016800128 -0.061456528 0.11220925
0.23096798 0.10147384 -0.08768638 0.07841479 0.017717773 0.07501193 -0.11256774 0.09885254
0.05236542 0.16726565 0.002666801 -0.05824104 0.15554956 0.040109828 -0.08840137 -0.12091948
-0.10115974 0.19856891 0.05550339 0.13033609 0.07774578 0.031433966 0.121149704 0.45924306
-0.046058472 0.115710914 -0.11767186 0.14468233 -0.08918347 0.22184683 -0.031299025 -0.031125557
0.0936121 0.18953341 -0.04628032 0.14651929 -0.078654215 0.118104614 0.15025602 -0.09646063
-0.16629606 -0.061800763 0.113288425 0.08149356 -0.09294377 0.16579783 0.0939794 0.12885788
0.09616879 0.034766275 0.10807046 -0.010836608 0.12049053 0.087026395 0.19495477 -0.087308474
0.102002 0.041836184 0.066394426 0.17709495 -0.095988035 0.14710988 0.13482696 0.12773119
00000000: c4b3 463e 95f7 033e 4043 9f3d a835 a63d
00000010: 8695 243e 0e5d f63c bcc1 8d3d f301 66bd
00000020: 0ff0 203d 886e a83d 6f98 0b3e d73c 9b3d
00000030: e37d 5d3c 9e66 5ebd 8f8c f3bd 37f9 0cbe
00000040: 6609 e23d 6cea b53c e5b7 403e dcbe fd3d
00000050: 17a9 703e a10c 663c 2835 153e b155 8b3e
00000060: 7f39 3ebc 8289 513e cc93 413c c6ce 63bd
00000070: 6bb4 063e cddd 4c3e b517 273d 1a97 cbbd
00000080: 0743 9b3d 9530 193e f490 f13c bc50 923e
00000090: cf43 c43d 5275 a03a 7c90 de3d 2042 0abc
000000a0: 7bee 41bc 877f 903d de85 403d 616d d23d
000000b0: ebbd 713a 7f2d 2f3e 2b32 cebc f280 fe3d
000000c0: 24d7 463e 00e0 993d b946 6f3e e76f dabd
000000d0: 7afb 163e 6f10 c73d 66b2 453c 66b5 cb3d
000000e0: f867 4e3e 0566 07bd 3627 bfbc afb7 6e3e
000000f0: 99f8 633d f6c0 833e 045d d33d dca4 0ebd
00000100: 0709 033e a283 04be aa6b a1bd a065 cd3b
00000110: 391f 1cbb 0b81 30be 426a 0bbe d7a4 b73d
00000120: c379 b43d ede6 c5bd 8c20 85bc 3817 4d3d
00000130: b884 c4bd 7db5 8abd 9743 2bbe b540 423d
00000140: d12c 77bc 9c0a ca3c 24ed 183d c4ab 8c3d
00000150: f6a0 fabb 9eed 933d 0106 793d 74d0 ffbd
00000160: 95a2 fa3d 49a3 89bd 6fe8 f53c ac01 f03d
00000170: fb81 8e3d 0d88 8bbc cf32 6d3d 3621 bebc
00000180: 1d40 00be ecba e7bd aedd c43d 258b 2bbd
00000190: 493e 6b3d 4f01 abbc 09c4 eabd d295 35bd
000001a0: 1e68 f63c e881 b83c e29a 87bd 75cb b13d
000001b0: 7d59 a03d f3dc 21bd 970d b13d e4fa 9339
000001c0: d7be 803d acbf 88bc 0529 23be eddf a3bd
000001d0: 932c 08bc 72dc 303d 14d1 d0bd 6171 ad3d
000001e0: a2d9 cdbc bd73 d73d ec35 6e3c 558b 41bc
000001f0: 5f81 bfbd d6c9 d9bd 4e7c 9c3c 2282 e1bd
00000200: bd44 943d c597 bf3d 23c4 773d 7e8d 8c3d
00000210: e1da ab3d 81ca 08bd 8542 d2bc 1465 8d3d
00000220: fd92 d1bd 6803 bcbb 3f69 e2bb f693 0abe
00000230: 6083 953d e7f2 c1bd 02c4 9dbd 56c6 f2bc
00000240: 13a9 86bd bccb fcbd 270d c53d 0c65 cbbd
00000250: ef23 8c3d e480 743d 3aa7 babd a754 03be
00000260: 810f ab3d 7a87 dfbd d342 a9bd ce8f 953d
00000270: 3539 a4bc 1a13 1fbd 0ae9 ad3d 7281 0a3e
00000280: fe5f 513d b879 b63d 1a2e bf3c 2a12 133d
00000290: 68d0 c63c 0eae fe3a 948a 04be 8852 f6bd
000002a0: 69b7 8c3d 9705 2e3d adcd cc3d eefd abbd
000002b0: 92ee c8bc 839f bdbd 4f89 6d3d 5352 97bd
000002c0: d599 ebbd 9163 41bd de2e 003d bcd7 8b3c
000002d0: 7a70 cabd 0ea6 56bc 2229 463d bc00 64bd
000002e0: 3007 7ebd f751 4dbd d887 793a c151 f0bd
000002f0: dc13 a33c 6ca0 89bc d7b9 7bbd f7cd e53d
00000300: df82 6c3e 84d1 cf3d eb94 b3bd ef97 a03d
00000310: dd24 913c db9f 993d ea89 e6bd 3373 ca3d
00000320: 1f7d 563d b047 2b3e 7fc5 2e3b 288e 6ebd
00000330: 6248 1f3e 344a 243d c70b b5bd a2a4 f7bd
00000340: d62c cfbd a655 4b3e 8657 633d d376 053e
00000350: 2e39 9f3d e7c0 003d 561d f83d e821 eb3e
00000360: cfa7 3cbd d8f9 ec3d f2fd f0bd 9b27 143e
00000370: d3a5 b6bd d12b 633e 6833 00bd 06fb febc
00000380: b3b7 bf3d 0c15 423e 6f90 3dbd 2709 163e
00000390: 7615 a1bd d5e0 f13d b7dc 193e 278d c5bd
000003a0: 8449 2abe cc22 7dbd c303 e83d 18e6 a63d
000003b0: 4e59 bebd e8c6 293e 4678 c03d 52f3 033e
000003c0: 24f4 c43d 1567 0e3d 0c54 dd3d 078c 31bc
000003d0: bdc3 f63d e53a b23d 39a2 473e c9ce b2bd
000003e0: 6de6 d03d 6b5c 2b3d cdf9 873d 6158 353e
000003f0: 6095 c4bd f9a3 163e 1410 0a3e f7cb 023e

lstm.bias_hh_l0 f4 [256]
0.1048356 0.117231056 0.03265908 0.20990911 0.20992686 -0.0105506 0.06337191 0.07229659
0.06995823 0.1244351 0.018142398 0.002983022 -0.024901325 0.111240044 -0.044494953 -0.019735442
0.021776155 0.10571916 0.2794706 0.055498555 0.059215117 0.06226608 0.093527496 0.44005525
0.08711765 0.20449424 -0.09098085 0.053325206 0.096688226 0.011257042 0.06634494 -0.02994933
-0.10207827 0.0951796 0.054735262 0.25533634 0.07490272 0.043528076 0.14960651 -0.019598214
-0.017781446 -0.024495948 0.047517337 0.04055975 0.019567879 0.20728387 -0.09525506 0.09435095
-0.039584283 0.048470065 0.19236489 0.10097722 0.15851742 0.25866866 -0.0102557875 -0.03260862
0.18452409 0.041302532 0.022189986 0.29085058 -0.10742114 0.17149773 0.16899765 -0.066875175
0.13132474 -0.06550427 0.08367787 0.1476009 -0.040406134 -0.112591326 -0.11492048 0.06459356
-0.015407532 0.065278925 -0.1973043 -0.0915884 0.0364258 -0.03954004 -0.0135172475 -0.137493
-0.04823828 -0.090210356 -0.08853273 -0.07008557 -0.052228957 0.039268516 0.035616554 -0.17670324
0.10209235 0.03075085 0.01266055 -0.10148798 0.065275766 -0.07597502 -0.046323854 -0.116655156
-0.039900832 0.015118494 0.09139581 0.05664404 -0.0668074 0.0032462077 0.0022416078 -0.0428449
-0.006953636 -0.03109524 -0.060408227 -0.0086011365 -0.046063192 0.014709447 -0.049532454 0.027948776
0.010869412 -0.045785546 -0.07248268 -0.085200526 0.09856905 -0.09591819 -0.034571394 0.10752563
0.09961472 -0.019869506 0.045041844 -0.02915144 -0.009025496 -0.0047671436 0.058117025 0.0008737517
-0.10567065 0.006119429 -0.059260223 -0.013721299 -0.11415664 -0.041301932 -0.0825455 0.08594084
0.104857124 -0.013285453 0.0831239 0.054663423 0.1218586 0.021804519 0.039712343 0.06827668
-0.0012442665 0.029492022 -0.07627278 -0.029531006 0.16697255 0.080571294 0.06451894 0.05516355
-0.11917771 0.09953022 0.10126243 -0.107261896 0.011011259 -0.06615814 0.1334655 0.060163286
0.012061297 -0.03766071 -0.12537093 -0.0038010117 0.07534943 -0.017073013 0.04701543 -0.110326834
0.016712435 -0.026825625 0.0011008612 0.030248148 -0.08304464 -0.0011040885 0.06013424 0.07501858
0.088101186 -0.08983687 0.16564316 0.05890563 -0.002141311 0.07619532 0.0538555 -0.0957115
-0.13185357 0.03505638 0.10141436 0.07611335 -0.10395461 -0.02223311 -0.011633361 -0.06443363
0.23087284 0.0077732503 0.004784306 0.06055458 0.079940245 0.10225854 -0.09534848 -0.03214708
-0.10235918 -0.06366337 0.08402625 -0.061180413 0.18649262 0.07831964 0.005800187 -0.0620794
0.06258167 0.21364835 0.14946605 -0.036113806 0.17222641 0.0804571 0.24220821 0.29999325
0.03766122 0.06107983 -0.033514347 0.12672804 0.023189057 0.20131178 0.11434141 -0.021338876
0.06785252 0.18849301 0.16924903 0.09215467 -0.07671963 0.12284834 0.23243447 0.12899004
-0.18114448 -0.07768061 0.12407733 0.09977773 -0.11223222 0.016666066 0.068748355 -0.042596575
0.17539641 0.026308628 0.24760714 -0.015248401 0.1476177 0.22378755 0.20185114 0.007676598
0.05740112 0.18187962 0.011294766 0.20746206 -0.12918223 0.06356003 0.056896422 0.10608047
00000000: 0cb4 d63d d616 f03d 87c5 053d 6af2 563e
00000010: 11f7 563e 6cdc 2cbc 22c9 813d 3c10 943d
00000020: 4346 8f3d d4d7 fe3d 5e9f 943c ce7e 433b
00000030: ddfd cbbc d2d1 e33d 5740 36bd 39ac a1bc
00000040: e863 b23c 4983 d83d c516 8f3e 7452 633d
00000050: 8d8b 723d b80a 7f3d 588b bf3d ec4e e13e
00000060: bd6a b23d f066 513e 2b54 babd 886b 5a3d
00000070: 7a04 c63d 756f 383c dbdf 873d 4c58 f5bc
00000080: 690e d1bd 86ed c23d 1532 603d 72bb 823e
00000090: 9966 993d 7f4a 323d 7332 193e 6f8c a0bc
000000a0: 65aa 91bc baab c8bc 8aa1 423d fb21 263d
000000b0: d14c a03c 3942 543e 1615 c3bd 123b c13d
000000c0: 2123 22bd 8c88 463d 4dfb 443e 25cd ce3d
000000d0: 6452 223e 3870 843e e407 28bc 9e90 05bd
000000e0: e2f3 3c3e d82c 293d c6c7 b53c 5eea 943e
000000f0: 9dff dbbd 1a9d 2f3e b80d 2d3e daf5 88bd
00000100: fe79 063e 1a27 86bd 4e5f ab3d b124 173e
00000110: e780 25bd 4896 e6bd 6e5b ebbd a149 843d
00000120: e06f 7cbc f5b0 853d 230a 4abe b392 bbbd
00000130: 3833 153d bdf4 21bd 7277 5dbc f7ca 0cbe
00000140: 8195 45bd 35c0 b8bd a650 b5bd 0689 8fbd
00000150: 08ee 55bd 06d8 203d aae2 113d b2f1 34be
00000160: cb15 d13d 35e9 fb3c 326e 4f3c eed8 cfbd
00000170: 4daf 853d cb98 9bbd 15be 3dbd e6e8 eebd
00000180: 0e6f 23bd 8fb3 773c ba2d bb3d 9503 683d
00000190: 51d2 88bd 54be 543b f0e7 123b 227e 2fbd
000001a0: 54db e3bb 72bb febc 9e6e 77bd c8eb 0cbc
000001b0: c2ac 3cbd e4ff 703c 8be2 4abd d5f4 e43c
000001c0: 9e15 323c a089 3bbd cd71 94bd 9d7d aebd
000001d0: 92de c93d c270 c4bd bc9a 0dbd 6636 dc3d
000001e0: cd02 cc3d 60c5 a2bc cc7d 383d 00cf eebc
000001f0: addf 13bc b335 9cbb 1e0c 6e3d 7c0c 653a
00000200: db69 d8bd 7e85 c83b d9ba 72bd 4dcf 60bc
00000210: f5ca e9bd 372c 29bd 9d0d a9bd c001 b03d
00000220: 55bf d63d 3bab 59bc dd3c aa3d c1e6 5f3d
00000230: 0091 f93d 649f b23c 69a9 223d a5d4 8b3d
00000240: a816 a3ba 4199 f13c e734 9cbd 02eb f1bc
00000250: dafa 2a3e 9002 a53d 8222 843d 2df3 613d
00000260: 7113 f4bd 80d6 cb3d ad62 cf3d 20ac dbbd
00000270: 9168 343c eb7d 87bd 2eab 083e c76d 763d
00000280: bf9c 453c 1e42 1abd 3d61 00be 651a 79bb
00000290: cd50 9a3d b4dc 8bbc 4093 403d 09f3 e1bd
000002a0: 84e8 883c 6ac1 dbbc c64a 903a f7ca f73c
000002b0: 4f13 aabd 10b7 90ba 524f 763d 57a3 993d
000002c0: 656e b43d 65fc b7bd 5c9e 293e 0847 713d
000002d0: 3d55 0cbb 4b0c 9c3d 9697 5c3d 6404 c4bd
000002e0: 9f04 07be 4797 0f3d 55b2 cf3d 51e1 9b3d
000002f0: 28e6 d4bd 3622 b6bc da99 3ebc c7f5 83bd
00000300: ee69 6c3e c0b6 fe3b abc5 9c3b 1408 783d
00000310: b6b7 a33d ed6c d13d 1046 c3bd a8ac 03bd
00000320: b1a1 d1bd f161 82bd f415 ac3d 5098 7abd
00000330: ecf7 3e3e 0c66 a03d 7f0f be3b f846 7ebd
00000340: d22a 803d a2c6 5a3e a10d 193e 12ec 13bd
00000350: 1f5c 303e b1c6 a43d 6e05 783e b798 993e
00000360: a742 1a3d d82e 7a3d 5746 09bd ffc4 013e
00000370: faf6 bd3c ad24 4e3e d42b ea3d dece aebc
00000380: 43f6 8a3d 5004 413e 9e4f 2d3e 96bb bc3d
00000390: 2e1f 9dbd e997 fb3d 4d03 6e3e f715 043e
000003a0: f07d 39be 0317 9fbd 411c fe3d 4458 cc3d
000003b0: 02da e5bd 4687 883c f0cb 8c3d bf79 2ebd
000003c0: 1e9b 333e 3185 d73c ba8c 7d3e 6ed4 79bc
000003d0: 1829 173e 9028 653e 11b2 4e3e f98b fb3b
000003e0: 701d 6b3d a73e 3a3e af0d 393c ef70 543e
000003f0: 5948 04be c32b 823d 390c 693d b840 d93d

lstm.weight_ih_l1 f4 [256, 64]
-0.021169811 0.17639408 0.032617256 -0.1135175 0.02530573 -0.053564563 0.098308794 -0.029913332
-0.11296306 -0.12240854 0.102478765 0.067779094 -0.120910086 -0.11545419 0.080197446 0.0007874823
0.099643484 -0.026369363 -0.2060428 -0.09647995 -0.022409614 0.16678968 0.22185445 -0.22734214
0.060843978 0.103097685 -0.09372591 -0.08869149 -0.06760127 -0.14949091 -0.0065079574 0.0075291377
0.14253499 -0.060137067 -0.165242 0.109028995 0.17889659 -0.14395513 0.048603963 -0.01665987
0.042537794 0.09190815 0.014356112 -0.10211938 0.05780872 0.006420412 -0.008571961 -0.12495011
0.1857037 -0.04301041 0.024514655 0.14270242 0.032699924 0.038756967 0.050619427 -0.04012777
-0.06905111 0.118167 -0.03132222 0.13867512 0.09471261 0.10840159 0.20838822 0.1034124
-0.0029279164 0.051601663 0.021797964 -0.14019491 0.038229417 -0.019988481 -0.09218125 -0.06471944
0.07226925 -0.0076819966 -0.016913917 0.008125731 -0.09002968 -0.12592432 -0.09800897 0.1112062
0.10194401 0.06970796 -0.09868491 -0.010249463 0.17144546 -0.042533185 -0.062469143 -0.06703476
-0.044141185 0.007535192 0.0696492 -0.07266739 0.03675305 -0.039755814 0.090679705 0.065142974
0.011453904 0.008268586 0.104939766 0.028147811 -0.036040377 -0.07609223 0.07255002 0.09107798
-0.02107098 0.04711847 0.021152653 -0.13032454 -0.022483319 0.051247783 0.08603932 0.09626652
-0.05539415 0.086099446 0.021922814 0.040912323 0.029398397 -0.0039040954 0.0014147642 0.10042115
-0.106694356 0.055214647 0.048831366 -0.022122806 -0.07273496 0.048373573 -0.10354987 -0.083642356
0.015954848 -0.03309812 0.1014408 -0.027576245 -0.13463211 -0.061275624 -0.053422265 0.09137908
0.030658113 -0.07288052 0.34824023 -0.23920824 0.28650275 -0.09668033 -0.1555199 -0.020001411
-0.09300261 -0.10357455 0.17057145 -0.13263524 0.1654174 0.053175002 -0.032695573 -0.08364543
0.004747197 0.10185954 0.070477925 0.08735617 -0.026540464 -0.08323233 0.121187806 -0.0068980013
-0.04663387 0.1589776 -0.109280355 0.038303338 0.13006799 0.06672752 -0.1852088 -0.19287394
0.2536436 0.04944059 0.09998275 -0.0732018 -0.06354074 -0.075546004 0.23637933 0.10071406
-0.07847327 -0.11873863 0.28831166 0.17544185 -0.15174063 0.26521957 0.06117505 0.034167446
-0.13910295 -0.12672949 0.122614995 -0.20492917 -0.1453579 -0.037817456 -0.13855322 -0.025440928
0.09202051 0.050391078 0.08378619 -0.0778495 0.037532672 -0.07099378 0.02439021 -0.053704537
0.09828537 0.07313399 0.03575129 -0.01946657 0.06404093 0.067851625 -0.006221775 -0.06460274
-0.13301519 -0.025002357 0.034448426 0.07486754 0.019276464 -0.07955141 0.11202481 -0.22779444
0.046088934 -0.044079907 0.0013678002 0.06331622 0.051201712 -0.037873797 -0.08371599 -0.10456847
-0.03858542 0.04146738 -0.088468105 -0.004501216 0.101931006 0.01138926 -0.05247651 0.023337724
0.063015506 -0.10135188 -0.052446675 -0.016281437 -0.0058439025 0.044257015 -0.043680254 -0.13564712
0.0058656316 -0.08563202 0.10914057 -0.07736095 -0.1190654 0.19687344 -0.04615216 0.01701955
0.0904854 0.07447457 0.09495357 0.049852416 -0.08073967 -0.10047469 -0.0969244 0.098891504
00000000: 506c adbc a6a0 343e ac99 053d dd7b e8bd
00000010: f64d cf3c 8466 5bbd 1f56 c93d ce0c f5bc
00000020: 2d59 e7bd 54b1 fabd 63e0 d13d c4cf 8a3d
00000030: b59f f7bd 3f73 ecbd 8f3e a43d 0b6f 4e3a
00000040: e211 cc3d 9004 d8bc e2fc 52be 4897 c5bd
00000050: 5e94 b7bc eaca 2a3e d02d 633e 61cc 68be
00000060: 8937 793d e124 d33d 5ff3 bfbd e2a3 b5bd
00000070: 8972 8abd 2514 19be b440 d5bb fcb6 f63b
00000080: b1f4 113e 4952 76bd 3335 29be 984a df3d
00000090: ab30 373e f968 13be f314 473d 487a 88bc
000000a0: 1c3c 2e3d 573a bc3d e635 6b3c f723 d1bd
000000b0: d6c8 6c3d 5262 d23b 6971 0cbc d8e5 ffbd
000000c0: 1c29 3e3e af2b 30bd f5d2 c83c 9520 123e
000000d0: 5bf0 053d a0bf 1e3d 5156 4f3d 045d 24bd
000000e0: ab6a 8dbd 8a01 f23d ba4b 00bd da00 0e3e
000000f0: aff8 c13d a701 de3d b963 553e e1c9 d33d
00000100: 49e2 3fbb 445c 533d a591 b23c 418f 0fbe
00000110: 7396 1c3d e2be a3bc 86c9 bcbd a08b 84bd
00000120: e701 943d 42b9 fbbb 0e8f 8abc c921 053c
00000130: 7b61 b8bd 4ef2 00be edb8 c8bd 14c0 e33d
00000140: 05c8 d03d 0cc3 8e3d 501b cabd 5ded 27bc
00000150: 668f 2f3e 4737 2ebd a5df 7fbd 8549 89bd
00000160: 63cd 34bd c6e9 f63b 3da4 8e3d a4d2 94bd
00000170: 5e8a 163d fed6 22bd 48b6 b93d ae69 853d
00000180: 28a9 3b3c f778 073c a9ea d63d 3d96 e63c
00000190: 139f 13bd 3ed6 9bbd 1b95 943d 1887 ba3d
000001a0: 0c9d acbc 4cff 403d 5448 ad3c cc73 05be
000001b0: f02e b8bc 32e9 513d 6235 b03d 6227 c53d
000001c0: fae4 62bd e854 b03d 7997 b33c ae93 273d
000001d0: e8d4 f03c dadb 7fbb 9c6f b93a 9ba9 cd3d
000001e0: 9282 dabd c128 623d 6603 483d e33a b5bc
000001f0: 11f6 94bd 5e23 463d f411 d4bd af4c abbd
00000200: beb3 823c e591 07bd 32c0 cf3d 94e7 e1bc
00000210: 00dd 09be 26fc 7abd 4ed1 5abd f524 bb3d
00000220: b926 fb3c 6242 95bd 8b4c b23e 01f3 74be
00000230: 7db0 923e 5600 c6bd 9c40 1fbe 00da a3bc
00000240: 2778 bebd e51e d4bd 48aa 2e3e 88d1 07be
00000250: 2e63 293e 08ce 593d cbeb 05bd 4c4e abbd
00000260: 608e 9b3b bc9b d03d bb56 903d cbe7 b23d
00000270: 636b d9bc b675 aabd 5031 f83d a108 e2bb
00000280: 2803 3fbd 06cb 223e 61ce dfbd f6e3 1c3d
00000290: 8b30 053e 70a8 883d 60a7 3dbe bf80 45be
000002a0: 93dd 813e 3782 4a3d c2c3 cc3d d3ea 95bd
000002b0: a621 82bd ddb7 9abd 6c0d 723e 2c43 ce3d
000002c0: 98b6 a0bd 3d2d f3bd 969d 933e 07a7 333e
000002d0: e561 1bbe dcca 873e b092 7a3d 2af3 0b3d
000002e0: 0171 0ebe 60c5 01be 921d fb3d f4d8 51be
000002f0: b4d8 14be 7ae6 1abd e5e0 0dbe 7e69 d0bc
00000300: 4075 bc3d e066 4e3d 1898 ab3d 8f6f 9fbd
00000310: dcbb 193d 3065 91bd facd c73c 4af9 5bbd
00000320: d749 c93d 46c7 953d f26f 123d 5b78 9fbc
00000330: e427 833d cbf5 8a3d 08e0 cbbb 714e 84bd
00000340: 2235 08be bed1 ccbc cb19 0d3d 2754 993d
00000350: ade9 9d3c daeb a2bd 436d e53d f242 69be
00000360: c0c7 3c3d 228d 34bd c247 b33a efab 813d
00000370: e3b8 513d 8e21 1bbd 4a73 abbd fe27 d6bd
00000380: bf0b 1ebd b3d9 293d c42e b5bd f07e 93bb
00000390: 34c1 d03d 059a 3a3c 9cf1 56bd c12e bf3c
000003a0: 460e 813d 9391 cfbd 53d2 56bd a660 85bc
000003b0: 357e bfbb d846 353d 11ea 32bd 14e7 0abe
000003c0: 7c34 c03b d75f afbd 1785 df3d 6b6f 9ebd
000003d0: 8fd8 f3bd 3199 493e 0c0a 3dbd 956c 8b3c
000003e0: 6950 b93d 2086 983d 0477 c23d 0c32 4c3d
000003f0: d75a a5bd adc5 cdbd 4d80 c6bd a187 ca3d

lstm.weight_hh_l1 f4 [256, 64]
0.10293143 -0.15156962 0.085553855 0.10429621 0.0910983 0.13351053 0.007723 0.093845636
0.06302903 -0.100723915 0.062047996 0.026067333 -0.04493485 0.11731326 -0.108416334 0.0857969
0.06460015 0.010950195 -0.030052558 -0.08860658 0.019704038 -0.0007186362 -0.112454236 0.0326142
-0.0501322 0.054725017 -0.090692945 -0.13123232 0.14275394 -0.0594374 -0.030528625 -0.13053799
0.042893644 0.0008254398 0.043215193 -0.09828367 -0.02861436 -0.038594723 0.082556896 0.106411554
-0.019318711 -0.07801215 -0.025694396 -0.014267744 -0.099071875 0.12856951 -0.028747017 0.050152082
-0.0042465194 -0.039645124 -0.11843546 -0.027949566 0.0394832 -0.09069412 0.039531294 -0.13006675
-0.112316415 0.015129773 -0.041240226 -0.059681572 0.04820262 0.04057188 0.06757188 0.10161514
0.06932797 0.074410625 0.07963456 -0.102606505 0.12315451 -0.018454028 0.105669715 -0.1139602
0.12968835 0.008907913 0.012436891 0.03445915 -0.04208277 0.105980955 0.12732716 -0.019672807
-0.020072406 0.048676267 -0.024173515 -0.0744735 -0.10307375 -0.034252666 -0.09982364 0.018797139
-0.1053798 0.09823986 0.07653196 0.034299154 -0.084657304 0.10163569 0.069131546 0.09919854
0.029706948 0.12235632 -0.09840021 0.029408876 -0.012999329 -0.0371943 0.047477312 -0.03324421
-0.06666387 0.054664355 0.09839154 -0.1350374 0.07926854 5.0023697e-05 0.020440655 -0.022709459
-0.032286584 0.04597582 0.040997628 0.0024197435 0.12359571 -0.12851083 0.08678311 -0.032827064
-0.02736064 0.0777656 0.09244087 -0.2209231 -0.07584392 0.050758805 0.08586516 0.08530874
-0.041397907 0.13360219 -0.070960075 0.060574524 -0.11379664 0.012277657 0.23217723 0.05746049
-0.018298632 -0.27380288 -0.019023106 -0.06875808 0.10023107 0.034182746 -0.1023976 0.17711058
0.009078037 0.26266372 -0.03780431 -0.1286092 0.043331802 -0.0036750108 -0.040170792 0.05710471
0.05165161 0.011226342 0.07554406 -0.13548958 -0.13671888 -0.07303428 -0.18184634 0.15199529
-0.012329696 0.010262337 0.1207448 -0.22893019 -0.084256105 0.13961753 0.04003292 0.044042844
0.087688945 0.05008991 -0.0118006915 0.36036307 -0.042009696 0.08450196 0.030734876 -0.055101443
0.008307706 -0.011672857 0.038732037 0.08599374 0.03284305 -0.023659984 -0.030643992 0.31875676
-0.011790416 0.09095257 0.15406045 -0.12802728 0.1697259 -0.084863484 -0.002818835 0.08876792
0.14621136 -0.032788966 0.10498221 0.1081234 -0.036072537 -0.014815743 -0.07224931 0.005881223
0.097439036 -0.12483995 -0.04372792 -0.09320769 -0.103318326 0.039989226 -0.10307773 -0.0361261
-0.05125803 0.046055064 -0.06904755 -0.035228748 0.014858404 0.07347093 -0.0281356 -0.009356565
-0.0026104022 -0.11668708 0.063719906 -0.09351271 -0.15394121 0.043488428 -0.10620871 -0.017647292
-0.1261311 0.02305107 0.024391396 -0.11939149 -0.0987956 0.026081 -0.025016634 -0.06041892
-0.11972333 0.067905776 0.016770499 -0.09590627 0.011949547 0.11484188 -0.020466413 0.0048501636
0.14827801 -0.07560207 0.14163327 0.04289073 -0.052985918 0.11812154 0.01082322 0.028684763
-0.0923963 -0.063869484 0.061388478 -0.10239197 0.09325842 0.11162992 -0.115807645 -0.039606262
00000000: b7cd d23d 1135 1bbe dc36 af3d 4099 d53d
00000010: bf91 ba3d fcb6 083e 3811 fd3b 2432 c03d
00000020: 5d15 813d 5748 cebd 0a26 7e3d 298b d53c
00000030: 9b0d 38bd ef41 f03d 6209 debd 49b6 af3d
00000040: 154d 843d 7268 333c c830 f6bc 5e77 b5bd
00000050: 5d6a a13c dc62 3cba 684e e6bd 7896 053d
00000060: 6c57 4dbd 5727 603d 39bd b9bd c461 06be
00000070: 172e 123e a274 73bd 2b17 fabc c0ab 05be
00000080: 3fb1 2f3d 5462 583a 6a02 313d f348 c9bd
00000090: aa68 eabc 8015 1ebd 9713 a93d 4dee d93d
000000a0: 4642 9ebc d6c4 9fbd 0e7d d2bc 41c3 69bc
000000b0: 32e6 cabd baa7 033e dd7e ebbc 456c 4d3d
000000c0: 6326 8bbb ed62 22bd 4a8e f2bd 7df6 e4bc
000000d0: 23b9 213d d7bd b9bd 91eb 213d 3830 05be
000000e0: 2606 e6bd dee2 773c 83eb 28bd aa74 74bd
000000f0: 1c70 453d b32e 263d 2063 8a3d 991b d03d
00000100: d3fb 8d3d 9964 983d 7217 a33d 5c23 d2bd
00000110: 6f38 fc3d e72c 97bc 5d69 d83d f763 e9bd
00000120: 06cd 043e 7ff2 113c 1ac4 4b3c 0a25 0d3d
00000130: fc5e 2cbd 8b0c d93d 0d62 023e de28 a1bc
00000140: e36e a4bc c460 473d 8907 c6bc 9085 98bd
00000150: 5518 d3bd 864c 0cbd 5670 ccbd 75fc 993c
00000160: 5dd1 d7bd fb31 c93d cabc 9c3d 457d 0c3d
00000170: cf60 adbd 5f26 d03d d794 8d3d 9b28 cb3d
00000180: fc5b f33c f395 fa3d 0d86 c9bd e2ea f03c
00000190: 23fb 54bc 0d59 18bd 9277 423d 152b 08bd
000001a0: 1187 88bd bbe7 5f3d 8181 c93d 3f47 0abe
000001b0: 8b57 a23d 89d0 5138 2973 a73c 3009 babc
000001c0: f03e 04bd 2451 3c3d 21ed 273d 8f94 1e3b
000001d0: bf1f fd3d 5898 03be 58bb b13d ac75 06bd
000001e0: 6c23 e0bc 9243 9f3d a451 bd3d aa39 62be
000001f0: 0f54 9bbd 77e8 4f3d 13da af3d 59b6 ae3d
00000200: da90 29bd 03cf 083e 8453 91bd fe1c 783d
00000210: 360e e9bd 3a28 493c debf 6d3e b15b 6b3d
00000220: 03e7 95bc e42f 8cbe 58d6 9bbc 09d1 8cbd
00000230: f245 cd3d 3503 0c3d d5b5 d1bd 7a5c 353e
00000240: 0cbc 143c dc7b 863e b1d8 1abd 21b2 03be
00000250: b07c 313d 73d8 70bb 218a 24bd a1e6 693d
00000260: a390 533d b1ee 373c d8b6 9a3d c8bd 0abe
00000270: 0900 0cbe ff92 95bd ed35 3abe a7a4 1b3e
00000280: 7e02 4abc 5c23 283c 0d49 f73d ad6c 6abe
00000290: 778e acbd e6f7 0e3e 8ff9 233d 4566 343d
000002a0: 4396 b33d 142b 4d3d b057 41bc 8281 b83e
000002b0: 5c12 2cbd 5d0f ad3d b5c7 fb3c 0db2 61bd
000002c0: 0b1d 083c 833f 3fbc 7ca5 1e3d 7c1d b03d
000002d0: 6f86 063d 95d2 c1bc 1c09 fbbc 1634 a33e
000002e0: 972c 41bc 5745 ba3d 06c2 1d3e 9519 03be
000002f0: a0cc 2d3e e8cc adbd 34bc 38bb f5cb b53d
00000300: 6eb8 153e b94d 06bd ea00 d73d cd6f dd3d
00000310: ccc0 13bd bbbd 72bc 72f7 93bd 46b7 c03b
00000320: 1e8e c73d 16ac ffbd 0c1c 33bd ace3 bebd
00000330: 8f98 d3bd becb 233d 6b1a d3bd f6f8 13bd
00000340: f1f3 51bd 3ca4 3c3d cd68 8dbd 054c 10bd
00000350: aa70 733c ed77 963d a17c e6bc 474c 19bc
00000360: 4813 2bbb a3f9 eebd 957f 823d 9783 bfbd
00000370: c4a2 1dbe ec20 323d f483 d9bd 0e91 90bc
00000380: 8328 01be 99d5 bc3c 77d0 c73c 8783 f4bd
00000390: 5955 cabd d2a7 d53c afef ccbc d479 77bd
000003a0: 8131 f5bd 2f12 8b3d 4962 893c 826a c4bd
000003b0: 08c8 433c 3832 eb3d 2ea9 a7bc 1fee 9e3b
000003c0: 31d6 173e 42d5 9abd 5008 113e 31ae 2f3d
000003d0: c307 59bd b5e9 f13d e053 313c 4ffc ea3c
000003e0: 453a bdbd 01ce 82bd 7c72 7b3d e2b2 d1bd
000003f0: 45fe be3d 3a9e e43d 8f2c edbd 2d3a 22bd

lstm.bias_ih_l1 f4 [256]
0.1379963 -0.097278066 0.30862954 -0.051898785 0.15185325 -0.056246493 0.12054493 -0.09944386
-0.037305616 -0.00947562 0.14684018 -0.08164889 -0.02837155 0.07344864 0.12883388 0.09308463
-0.0021059318 0.08965615 0.056649595 0.10709369 -0.084849454 -0.050167 0.13222164 0.12542073
0.08474884 0.1156243 0.0032483253 -0.15579334 0.3698648 0.059861172 0.19533461 0.072436646
0.03815976 0.10415058 -0.09312508 0.16330396 -0.087704286 0.14422657 0.08155304 -0.08614123
-0.082425945 -0.00063219835 0.090031125 0.27615735 -0.12924373 -0.085045435 0.05697429 -0.06872397
-0.024184572 -0.055382546 0.067819804 -0.060858555 0.065238155 0.0844347 -0.03708287 0.6367581
-0.016331783 0.0923153 0.07280379 0.3660436 0.053284455 -0.0022294293 -0.020947507 0.12987295
0.100704394 0.08160079 -0.057205 -0.033263184 -0.11850101 -0.087648466 0.05231702 -0.07595713
-0.12464984 0.052034207 0.08203609 -0.00066322647 0.025053056 -0.09368009 0.10404705 -0.06918109
-0.09362785 -0.0060274154 -0.09812812 0.015700875 -0.085138425 -0.10265192 0.058802757 0.0927178
-0.13495572 0.017631656 0.030249892 -0.12083593 0.023773346 -0.10015445 0.012468752 -0.06554188
-0.0071401102 -0.082305886 -0.09365974 0.0020482994 0.07386255 -0.075386494 0.013018436 -0.12726076
-0.07866952 0.10341489 -0.014192408 -0.20682003 0.07488108 0.03728316 0.015391682 -0.062785596
0.024069598 0.09519443 -0.14916411 -0.044063758 0.12736931 -0.08354714 -0.056809302 -0.233309
-0.03071092 -0.11582449 0.00035207448 -0.4862114 0.026483422 -0.12702143 0.021665553 0.10796547
0.06040132 -0.005763492 -0.124653555 0.08491473 -0.04974464 -0.008999184 0.09660298 0.0028346279
-0.103256464 0.061868597 -0.07345458 0.05687902 0.07768776 -0.030684205 -0.10632866 0.060694236
-0.12295622 -0.05838989 0.029762084 0.025846135 0.11235219 -0.03701509 0.0010363837 -0.043041408
0.05004377 0.060526576 -0.06909628 -0.018327132 -0.08154536 0.04056901 0.05741012 -0.09519035
-0.08681666 -0.022331811 0.0138757825 -0.046593137 0.036325943 0.14667271 0.037899032 0.0997505
0.099561945 0.086618304 0.062194593 0.047211286 -0.081657514 0.07512645 0.068631224 -0.051585138
-0.076879844 0.14442857 0.06216152 -0.010539805 0.053545278 -0.00084353413 -0.09396911 -0.03321645
-0.07529734 0.11030574 0.037934195 0.072852984 -0.061578378 -0.07173321 -0.031228278 -0.100310415
0.033703748 -0.10597667 0.2248894 0.0024502743 0.029298952 -0.05394324 -0.09842461 0.07209062
0.053676724 -0.042365927 0.18568794 -0.024503568 -0.08650053 -0.06648053 0.03282348 0.10269448
-0.0024097231 0.13075154 0.059243977 0.13276295 0.061926812 0.08848526 0.066660605 0.02098251
-0.046924733 -0.11106455 -0.011414911 -0.009068242 0.23251131 -0.0125431 0.021861585 -0.08638756
0.07483146 0.039698165 -0.07121808 0.14100592 -0.100410715 0.05319793 0.12173692 -0.092558056
-0.05567153 -0.004289709 0.15478623 0.34715614 -0.0068358104 0.066901945 0.16201243 0.15043873
-0.054529708 0.028324483 0.16116028 -0.0702257 0.062630504 0.08086392 0.14955536 0.68015575
-0.07595594 0.014672374 0.075857945 0.59325546 -0.06424068 0.06770358 0.033097647 -0.045716435
00000000: e74e 0d3e b939 c7bd b104 9e3e d293 54bd
00000010: 6b7f 1b3e b962 66bd 43e0 f63d 39a9 cbbd
00000020: c6cd 18bd a23f 1bbc 465d 163e 8937 a7bd
00000030: 746b e8bc 3e6c 963d 07ed 033e 28a3 be3d
00000040: ac03 0abb a59d b73d 6809 683d f053 db3d
00000050: 8dc5 adbd ea7b 4dbd 1c65 073e 4b6e 003e
00000060: cd90 ad3d 6fcc ec3d dbe1 543b 4a88 1fbe
00000070: eb5e bd3e fd30 753d cc05 483e aa59 943d
00000080: 694d 1c3d e64c d53d 5db8 bebd 2739 273e
00000090: 4e9e b3bd 21b0 133e 4805 a73d d06a b0bd
000000a0: efce a8bd 1dba 25ba 3d62 b83d 7f64 8d3e
000000b0: 7858 04be 4d2c aebd e05d 693d 27bf 8cbd
000000c0: b91e c6bc cfd8 62bd 1ce5 8a3d d246 79bd
000000d0: 959b 853d 1aec ac3d 35e4 17bd 9402 233f
000000e0: 3bca 85bc ce0f bd3d 271a 953d 116a bb3e
000000f0: cd40 5a3d 9e1b 12bb 1b9a abbc 6afd 043e
00000100: 1b3e ce3d 511e a73d ca4f 6abd fa3e 08bd
00000110: a8b0 f2bd 0a81 b3bd 5f4a 563d 698f 9bbd
00000120: 6a48 ffbd d221 553d 8a02 a83d 60dc 2dba
00000130: 113c cd3c 59db bfbd 9f16 d53d d1ae 8dbd
00000140: f5bf bfbd a081 c5bb 65f7 c8bd 1f9f 803c
00000150: 0e5d aebd 2b3b d2bd 29db 703d d4e2 bd3d
00000160: d531 0abe 4370 903c 9fce f73c d478 f7bd
00000170: 52c0 c23c c71d cdbd bd49 4c3c d23a 86bd
00000180: 96f7 e9bb fd8f a8bd aed0 bfbd c33c 063b
00000190: 4045 973d 3c64 9abd 474b 553c a550 02be
000001a0: 7c1d a1bd 30cb d33d 4687 68bc a1c8 53be
000001b0: 405b 993d 3ab6 183d 652d 7c3c bc95 80bd
000001c0: 9b2d c53c 4cf5 c23d 7abe 18be 337c 34bd
000001d0: 1a6d 023e c31a abbd dfb0 68bd 8ee8 6ebe
000001e0: 7895 fbbc 6435 edbd a396 b839 b3f0 f8be
000001f0: c3f3 d83c e811 02be f57b b13c 001d dd3d
00000200: 6067 773d addb bcbb 5d4a ffbd c6e7 ad3d
00000210: 09c1 4bbd 5071 13bc c8d7 c53d 2ac5 393b
00000220: 2078 d3bd ed69 7d3d 5b6f 96bd faf9 683d
00000230: c31a 9f3d 715d fbbc d7c2 d9bd 859a 783d
00000240: 78d0 fbbd 3d2a 6fbd 9dcf f33c 46bb d33c
00000250: e818 e63d 239d 17bd 44d7 873a 304c 30bd
00000260: b2fa 4c3d b7ea 773d 5a82 8dbd c822 96bc
00000270: 4101 a7bd b12b 263d e026 6b3d 29f3 c2bd
00000280: efcc b1bd 34f1 b6bc 4057 633c 72d8 3ebd
00000290: 83ca 143d 5f31 163e 043c 1b3d fd49 cc3d
000002a0: 22e7 cb3d f064 b13d c2bf 7e3d 9f60 413d
000002b0: 0e3c a7bd e5db 993d 878e 8c3d f04a 53bd
000002c0: 2e73 9dbd 15e5 133e 149d 7e3d 25af 2cbc
000002d0: 4b52 5b3d 9e20 5dba e072 c0bd f90d 08bd
000002e0: 7e35 9abd fae7 e13d e360 1b3d f233 953d
000002f0: 9c39 7cbd dce8 92bd 72d2 ffbc 8c6f cdbd
00000300: f10c 0a3d 4c0a d9bd 6849 663e c894 203b
00000310: 5b04 f03c 96f3 5cbd d892 c9bd 3fa4 933d
00000320: 20dc 5b3d e587 2dbd fb24 3e3e b5bb c8bc
00000330: 3127 b1bd f226 88bd ea71 063d 7c51 d23d
00000340: 72ec 1dbb bbe3 053e d0a9 723d 03f3 073e
00000350: f8a6 7d3d c337 b53d 5b85 883d 83e3 ab3c
00000360: 2634 40bd d075 e3bd 9b05 3bbc f792 14bc
00000370: 7217 6e3e 9381 4dbc 1117 b33c f6eb b0bd
00000380: 3d41 993d 8b9a 223d c9da 91bd db63 103e
00000390: 22a4 cdbd 13e6 593d 3551 f93d 148f bdbd
000003a0: d507 64bd b090 8cbb 4880 1e3e 73be b13e
000003b0: effe dfbb e303 893d 96e6 253e 9c0c 1a3e
000003c0: 8b5a 5fbd bf08 e83c 3307 253e 7ed2 8fbd
000003d0: 6c44 803d fc9b a53d 0a25 193e b01e 2e3f
000003e0: ca8e 9bbd 6664 703c 695b 9b3d 97df 173f
000003f0: 9e90 83bd 2da8 8a3d 6691 073d 2841 3bbd

lstm.bias_hh_l1 f4 [256]
0.14680193 -0.04317788 0.2718779 -0.01089909 0.06640979 -0.053628135 0.018731466 -0.0980533
-0.0050949804 0.027213166 0.02776424 0.11623459 0.10629716 0.06735402 -0.057261273 0.04576911
-0.044186167 -0.06733594 0.057370864 0.1848947 0.0994486 0.07593187 0.024395978 0.13147737
-0.058255106 0.087816976 0.07795733 -0.13326761 0.3774155 -0.0507381 0.1967908 0.12806389
-0.03965189 0.10257159 0.08966667 -0.0021331748 0.011493858 0.16896622 0.052290082 -0.06779358
-0.09643275 -0.059816446 0.076743074 0.1716086 0.012617216 -0.03047626 -0.035875015 -0.029341886
-0.07594569 -0.01570384 0.23838727 0.10620234 -0.08173476 -0.079619944 -0.018767273 0.73954695
0.0325768 0.07917741 0.05205431 0.54089624 0.07684649 0.0741547 -0.05262289 0.09606425
-0.031441882 0.039863475 -0.004683897 -0.0811 -0.019576512 -0.076697946 -0.12796195 0.019398218
0.05888149 -0.09299053 -0.103517026 0.012934114 -0.09434873 0.08164882 -0.02795175 -0.026827639
0.015660686 -0.042657964 0.022693874 -0.043897893 -0.09521937 -0.08159574 0.07629504 -0.014372983
0.014644436 -0.12094866 -0.108234085 0.032199454 0.008998273 -0.10106585 -0.076993644 -0.10086771
-0.07193382 -0.007990247 -0.11281702 0.0635319 0.035103813 -0.012980634 -0.090333164 0.10390188
0.06752168 0.036926053 -0.06663104 -0.20216636 0.001740354 0.08696349 -0.030652894 -0.048987404
0.0409448 -0.05948661 -0.107373185 -0.04503109 0.1743719 -0.036107972 -0.1316747 -0.37058437
-0.08192125 -0.018552428 -0.071813285 -0.4629136 -0.054180376 0.08632384 -0.081969865 0.016852599
-0.030186366 -0.030858953 -0.05685146 0.028411044 -0.038679164 0.03446506 -0.08372699 0.06184308
-0.09392415 -0.028721554 -0.040527403 -0.004826894 0.047876045 0.08737906 -0.044141382 -0.065422624
0.021836277 0.05784354 0.05077147 -0.053256292 0.12227751 0.068043076 -0.12145443 -0.01938466
0.08451611 -0.024410784 -0.07881676 -0.066584386 0.07350146 0.026563536 -0.08016192 0.053419113
-0.12798724 0.025784241 -0.06916073 -0.028340878 0.05284426 0.06779134 0.12098627 0.015699856
0.023417495 -0.037175722 0.04233554 -0.016366776 -0.045948 0.09285761 -0.01711145 0.13478078
0.083611175 0.12600942 -0.06411085 0.08309528 0.029327022 0.02765064 -0.06100037 -0.15632053
-0.041574433 -0.07591216 0.11593695 -0.0064038304 -0.04698748 -0.08686067 -0.069780864 0.035080664
0.027641047 0.011498977 0.28310692 0.025947006 0.13130234 0.08849338 -0.10270892 -0.09188371
-0.08468835 0.032634612 0.02880559 0.020406054 0.10697376 0.094351426 0.014276091 0.0772558
-0.040799167 0.015985064 0.07977581 0.16166167 -0.0050178575 0.007192499 0.066704296 -0.03163501
0.03781596 0.09920946 0.026871443 -0.044089783 0.2171483 -0.1434209 0.18664458 0.11884256
-0.07022174 -0.08202505 0.06784313 0.16625877 0.07525684 0.029375913 -0.050267268 0.060737204
-0.10436923 0.104112655 0.024316987 0.31176883 0.09341352 -0.07277543 0.028690618 0.095097005
0.122025244 0.14489324 0.12974532 0.043337062 0.10421114 0.073716074 -0.0774869 0.6150133
-0.06037802 -0.070410706 0.05450806 0.5905673 -0.10707882 0.12274601 0.07404464 0.16823982
00000000: 3f53 163e 4adb 30bd 9533 8b3e 1992 32bc
00000010: db01 883d 2da9 5bbd bb72 993c 2bd0 c8bd
00000020: cbf3 a6bb 25ee de3c d571 e33c 670c ee3d
00000030: 53b2 d93d e8f0 893d cc8a 6abd 6478 3b3d
00000040: 8efc 34bd 6de7 89bd b6fd 6a3d 0955 3d3e
00000050: b5ab cb3d 2b82 9b3d 13da c73c 01a2 063e
00000060: e89c 6ebd 63d9 b33d 18a8 9f3d 4e77 08be
00000070: 9b3c c13e c1d2 4fbd 8783 493e 2e23 033e
00000080: 056a 22bd 0e11 d23d 29a3 b73d bccc 0bbb
00000090: bc50 3c3c 7b05 2d3e 202e 563d 5cd7 8abd
000000a0: 897e c5bd 1702 75bd 792b 9d3d 2aba 2f3e
000000b0: 71b8 4e3c 5aa9 f9bc aef1 12bd 655e f0bc
000000c0: 6a89 9bbd 57a5 80bc cb1b 743e 9d80 d93d
000000d0: 8e64 a7bd c80f a3bd d3bd 99bc f352 3d3f
000000e0: 406f 053d c427 a23d e636 553d 2d78 0a3f
000000f0: b161 9d3d 6bde 973d 198b 57bd 55bd c43d
00000100: 34c9 00bd e247 233d 607b 99bb c217 a6bd
00000110: ec5e a0bc d013 9dbd 7508 03be 03e9 9e3c
00000120: b82d 713d d271 bebd bc00 d4bd 9be9 533c
00000130: e839 c1bd 7f37 a73d 12fb e4bc a3c5 dbbc
00000140: d74a 803c 1eba 2ebd 81e8 b93c 47ce 33bd
00000150: 6002 c3bd ab1b a7bd 9340 9c3d a97c 6bbc
00000160: 37ef 6f3c eeb3 f7bd d5a9 ddbd 93e3 033d
00000170: 7e6d 133c 9dfb cebd d8ae 9dbd bb93 cebd
00000180: 0a52 93bd 86e9 02bc 9c0c e7bd 031d 823d
00000190: 04c9 0f3d baac 54bc 9800 b9bd 82ca d43d
000001a0: ce48 8a3d c63f 173d db75 88bd b304 4fbe
000001b0: 971c e43a ea19 b23d c71b fbbc 04a7 48bd
000001c0: bcb5 273d 3ba8 73bd 79e6 dbbd 8572 38bd
000001d0: 8c8e 323e f4e5 13bd bcd5 06be 3cbd bdbe
000001e0: 54c6 a7bd 43fb 97bc d812 93bd 0303 edbe
000001f0: 3eec 5dbd 8eca b03d d1df a7bd 760e 8a3c
00000200: 6649 f7bc eacb fcbc 14dd 68bd 47be e83c
00000210: 0b6e 1ebd 3c2b 0d3d 0e79 abbd 2b4f 7d3d
00000220: 4e5b c0bd 7749 ebbc 1000 26bd ec2a 9ebb
00000230: ac19 443d cbf3 b23d 98cd 34bd 4cfc 85bd
00000240: fee1 b23c 59ed 6c3d bff5 4f3d 4523 5abd
00000250: a26c fa3d 2b5a 8b3d 1abd f8bd 94cc 9ebc
00000260: c816 ad3d 20f9 c7bc ae6a a1bd 655d 88bd
00000270: ef87 963d c69b d93c ef2b a4bd 00ce 5a3d
00000280: 160f 03be 7939 d33c 24a4 8dbd 212b e8bc
00000290: 3973 583d 30d6 8a3d a6c7 f73d fc9c 803c
000002a0: 0cd6 bf3c 9245 18bd 0868 2d3d 9e13 86bc
000002b0: f833 3cbd 212c be3d 502d 8cbc f903 0a3e
000002c0: 563c ab3d 9d08 013e 8d4c 83bd dc2d aa3d
000002d0: 393f f03c 9883 e23c 86db 79bd 7d12 20be
000002e0: f449 2abd d677 9bbd 5a70 ed3d 39d7 d1bb
000002f0: f275 40bd 02e4 b1bd 45e9 8ebd beb0 0f3d
00000300: 7a6f e23c 3566 3c3c 64f3 903e d18e d43c
00000310: 1f74 063e 043c b53d 0e59 d2bd 872d bcbd
00000320: 1671 adbd dfab 053d b3f9 eb3c 992a a73c
00000330: 0f15 db3d 523b c13d 44e6 693c 4a38 9e3d
00000340: 071d 27bd 1cf3 823c 8061 a33d a38a 253e
00000350: d76c a4bb 0eaf eb3b 439c 883d b693 01bd
00000360: e8e4 1a3d 542e cb3d 8021 dc3c 7d97 34bd
00000370: 205c 5e3e eedc 12be c21f 3f3e ba63 f33d
00000380: 6ad0 8fbd c0fc a7bd 57f1 8a3d bd3f 2a3e
00000390: 4220 9a3d c1a5 f03c 0de5 4dbd 93c7 783d
000003a0: 89bf d5bd 0439 d53d 6b34 c73c 2aa0 9f3e
000003b0: 964f bf3d 490b 95bd 9608 eb3c 38c2 c23d
000003c0: 5fe8 f93d e55e 143e f5db 043e 3482 313d
000003d0: a66c d53d 74f8 963d 74b1 9ebd 8371 1d3f
000003e0: f14e 77bd 7d33 90bd d843 5f3d 6b2f 173f
000003f0: 244c dbbd 4362 fb3d b7a4 973d 0f47 2c3e
